| Wide-Resnet 28x4
/tools/miniconda3/envs/pytorch_p36/lib/python3.6/site-packages/torch/nn/functional.py:1351: UserWarning: nn.functional.sigmoid is deprecated. Use torch.sigmoid instead.
  warnings.warn("nn.functional.sigmoid is deprecated. Use torch.sigmoid instead.")
----------------------------------------------------------------
        Layer (type)               Output Shape         Param #
================================================================
            Conv2d-1         [-1, 16, 140, 210]             448
       BatchNorm2d-2         [-1, 16, 140, 210]              32
            Conv2d-3         [-1, 64, 140, 210]           9,280
           Dropout-4         [-1, 64, 140, 210]               0
       BatchNorm2d-5         [-1, 64, 140, 210]             128
            Conv2d-6          [-1, 64, 70, 105]          36,928
            Conv2d-7          [-1, 64, 70, 105]           1,088
        wide_basic-8          [-1, 64, 70, 105]               0
       BatchNorm2d-9          [-1, 64, 70, 105]             128
           Conv2d-10          [-1, 64, 70, 105]          36,928
          Dropout-11          [-1, 64, 70, 105]               0
      BatchNorm2d-12          [-1, 64, 70, 105]             128
           Conv2d-13          [-1, 64, 70, 105]          36,928
       wide_basic-14          [-1, 64, 70, 105]               0
      BatchNorm2d-15          [-1, 64, 70, 105]             128
           Conv2d-16          [-1, 64, 70, 105]          36,928
          Dropout-17          [-1, 64, 70, 105]               0
      BatchNorm2d-18          [-1, 64, 70, 105]             128
           Conv2d-19          [-1, 64, 70, 105]          36,928
       wide_basic-20          [-1, 64, 70, 105]               0
      BatchNorm2d-21          [-1, 64, 70, 105]             128
           Conv2d-22          [-1, 64, 70, 105]          36,928
          Dropout-23          [-1, 64, 70, 105]               0
      BatchNorm2d-24          [-1, 64, 70, 105]             128
           Conv2d-25          [-1, 64, 70, 105]          36,928
       wide_basic-26          [-1, 64, 70, 105]               0
      BatchNorm2d-27          [-1, 64, 70, 105]             128
           Conv2d-28         [-1, 128, 70, 105]          73,856
          Dropout-29         [-1, 128, 70, 105]               0
      BatchNorm2d-30         [-1, 128, 70, 105]             256
           Conv2d-31          [-1, 128, 35, 53]         147,584
           Conv2d-32          [-1, 128, 35, 53]           8,320
       wide_basic-33          [-1, 128, 35, 53]               0
      BatchNorm2d-34          [-1, 128, 35, 53]             256
           Conv2d-35          [-1, 128, 35, 53]         147,584
          Dropout-36          [-1, 128, 35, 53]               0
      BatchNorm2d-37          [-1, 128, 35, 53]             256
           Conv2d-38          [-1, 128, 35, 53]         147,584
       wide_basic-39          [-1, 128, 35, 53]               0
      BatchNorm2d-40          [-1, 128, 35, 53]             256
           Conv2d-41          [-1, 128, 35, 53]         147,584
          Dropout-42          [-1, 128, 35, 53]               0
      BatchNorm2d-43          [-1, 128, 35, 53]             256
           Conv2d-44          [-1, 128, 35, 53]         147,584
       wide_basic-45          [-1, 128, 35, 53]               0
      BatchNorm2d-46          [-1, 128, 35, 53]             256
           Conv2d-47          [-1, 128, 35, 53]         147,584
          Dropout-48          [-1, 128, 35, 53]               0
      BatchNorm2d-49          [-1, 128, 35, 53]             256
           Conv2d-50          [-1, 128, 35, 53]         147,584
       wide_basic-51          [-1, 128, 35, 53]               0
      BatchNorm2d-52          [-1, 128, 35, 53]             256
           Conv2d-53          [-1, 256, 35, 53]         295,168
          Dropout-54          [-1, 256, 35, 53]               0
      BatchNorm2d-55          [-1, 256, 35, 53]             512
           Conv2d-56          [-1, 256, 18, 27]         590,080
           Conv2d-57          [-1, 256, 18, 27]          33,024
       wide_basic-58          [-1, 256, 18, 27]               0
      BatchNorm2d-59          [-1, 256, 18, 27]             512
           Conv2d-60          [-1, 256, 18, 27]         590,080
          Dropout-61          [-1, 256, 18, 27]               0
      BatchNorm2d-62          [-1, 256, 18, 27]             512
           Conv2d-63          [-1, 256, 18, 27]         590,080
       wide_basic-64          [-1, 256, 18, 27]               0
      BatchNorm2d-65          [-1, 256, 18, 27]             512
           Conv2d-66          [-1, 256, 18, 27]         590,080
          Dropout-67          [-1, 256, 18, 27]               0
      BatchNorm2d-68          [-1, 256, 18, 27]             512
           Conv2d-69          [-1, 256, 18, 27]         590,080
       wide_basic-70          [-1, 256, 18, 27]               0
      BatchNorm2d-71          [-1, 256, 18, 27]             512
           Conv2d-72          [-1, 256, 18, 27]         590,080
          Dropout-73          [-1, 256, 18, 27]               0
      BatchNorm2d-74          [-1, 256, 18, 27]             512
           Conv2d-75          [-1, 256, 18, 27]         590,080
       wide_basic-76          [-1, 256, 18, 27]               0
      BatchNorm2d-77          [-1, 256, 18, 27]             512
           Linear-78                    [-1, 4]           6,148
================================================================
Total params: 5,856,676
Trainable params: 5,856,676
Non-trainable params: 0
----------------------------------------------------------------
Input size (MB): 0.34
Forward/backward pass size (MB): 222.34
Params size (MB): 22.34
Estimated Total Size (MB): 245.02
----------------------------------------------------------------
2019-12-13 11:55:50.937858
…
