----------------------------------------------------------------
        Layer (type)               Output Shape         Param #
================================================================
            Conv2d-1         [-1, 32, 140, 210]             896
              ReLU-2         [-1, 32, 140, 210]               0
       BatchNorm2d-3         [-1, 32, 140, 210]              64
            Conv2d-4         [-1, 32, 140, 210]           9,248
              ReLU-5         [-1, 32, 140, 210]               0
       BatchNorm2d-6         [-1, 32, 140, 210]              64
            Conv2d-7         [-1, 32, 140, 210]           9,248
              ReLU-8         [-1, 32, 140, 210]               0
       BatchNorm2d-9         [-1, 32, 140, 210]              64
           Conv2d-10         [-1, 32, 140, 210]           9,248
             ReLU-11         [-1, 32, 140, 210]               0
      BatchNorm2d-12         [-1, 32, 140, 210]              64
          Dropout-13         [-1, 32, 140, 210]               0
        AvgPool2d-14          [-1, 32, 70, 105]               0
           Conv2d-15          [-1, 64, 70, 105]          18,496
             ReLU-16          [-1, 64, 70, 105]               0
      BatchNorm2d-17          [-1, 64, 70, 105]             128
           Conv2d-18          [-1, 64, 70, 105]          36,928
             ReLU-19          [-1, 64, 70, 105]               0
      BatchNorm2d-20          [-1, 64, 70, 105]             128
           Conv2d-21          [-1, 64, 70, 105]          36,928
             ReLU-22          [-1, 64, 70, 105]               0
      BatchNorm2d-23          [-1, 64, 70, 105]             128
          Dropout-24          [-1, 64, 70, 105]               0
           Conv2d-25         [-1, 128, 70, 105]          73,856
             ReLU-26         [-1, 128, 70, 105]               0
      BatchNorm2d-27         [-1, 128, 70, 105]             256
           Conv2d-28         [-1, 128, 70, 105]         147,584
             ReLU-29         [-1, 128, 70, 105]               0
      BatchNorm2d-30         [-1, 128, 70, 105]             256
           Conv2d-31          [-1, 128, 36, 54]          16,512
             ReLU-32          [-1, 128, 36, 54]               0
      BatchNorm2d-33          [-1, 128, 36, 54]             256
        AvgPool2d-34            [-1, 128, 4, 6]               0
             View-35                 [-1, 3072]               0
           Linear-36                    [-1, 4]          12,292
          Sigmoid-37                    [-1, 4]               0
================================================================
Total params: 372,644
Trainable params: 372,644
Non-trainable params: 0
----------------------------------------------------------------
Input size (MB): 0.34
Forward/backward pass size (MB): 179.80
Params size (MB): 1.42
Estimated Total Size (MB): 181.56
----------------------------------------------------------------
Reading data
Loaded data
…
