----------------------------------------------------------------
        Layer (type)               Output Shape         Param #
================================================================
            Conv2d-1         [-1, 64, 140, 210]           1,792
       BatchNorm2d-2         [-1, 64, 140, 210]             128
              ReLU-3         [-1, 64, 140, 210]               0
            Conv2d-4         [-1, 64, 140, 210]          36,928
       BatchNorm2d-5         [-1, 64, 140, 210]             128
              ReLU-6         [-1, 64, 140, 210]               0
       double_conv-7         [-1, 64, 140, 210]               0
            inconv-8         [-1, 64, 140, 210]               0
         MaxPool2d-9          [-1, 64, 70, 105]               0
           Conv2d-10         [-1, 128, 70, 105]          73,856
      BatchNorm2d-11         [-1, 128, 70, 105]             256
             ReLU-12         [-1, 128, 70, 105]               0
           Conv2d-13         [-1, 128, 70, 105]         147,584
      BatchNorm2d-14         [-1, 128, 70, 105]             256
             ReLU-15         [-1, 128, 70, 105]               0
      double_conv-16         [-1, 128, 70, 105]               0
             down-17         [-1, 128, 70, 105]               0
        MaxPool2d-18          [-1, 128, 35, 52]               0
           Conv2d-19          [-1, 256, 35, 52]         295,168
      BatchNorm2d-20          [-1, 256, 35, 52]             512
             ReLU-21          [-1, 256, 35, 52]               0
           Conv2d-22          [-1, 256, 35, 52]         590,080
      BatchNorm2d-23          [-1, 256, 35, 52]             512
             ReLU-24          [-1, 256, 35, 52]               0
      double_conv-25          [-1, 256, 35, 52]               0
             down-26          [-1, 256, 35, 52]               0
        MaxPool2d-27          [-1, 256, 17, 26]               0
           Conv2d-28          [-1, 512, 17, 26]       1,180,160
      BatchNorm2d-29          [-1, 512, 17, 26]           1,024
             ReLU-30          [-1, 512, 17, 26]               0
           Conv2d-31          [-1, 512, 17, 26]       2,359,808
      BatchNorm2d-32          [-1, 512, 17, 26]           1,024
             ReLU-33          [-1, 512, 17, 26]               0
      double_conv-34          [-1, 512, 17, 26]               0
             down-35          [-1, 512, 17, 26]               0
        MaxPool2d-36           [-1, 512, 8, 13]               0
           Conv2d-37           [-1, 512, 8, 13]       2,359,808
      BatchNorm2d-38           [-1, 512, 8, 13]           1,024
             ReLU-39           [-1, 512, 8, 13]               0
           Conv2d-40           [-1, 512, 8, 13]       2,359,808
      BatchNorm2d-41           [-1, 512, 8, 13]           1,024
             ReLU-42           [-1, 512, 8, 13]               0
      double_conv-43           [-1, 512, 8, 13]               0
             down-44           [-1, 512, 8, 13]               0
          Dropout-45           [-1, 512, 8, 13]               0
           Conv2d-46           [-1, 256, 8, 13]       1,179,904
             ReLU-47           [-1, 256, 8, 13]               0
      BatchNorm2d-48           [-1, 256, 8, 13]             512
           Conv2d-49           [-1, 256, 8, 13]         590,080
             ReLU-50           [-1, 256, 8, 13]               0
      BatchNorm2d-51           [-1, 256, 8, 13]             512
           Conv2d-52           [-1, 256, 8, 13]         590,080
             ReLU-53           [-1, 256, 8, 13]               0
      BatchNorm2d-54           [-1, 256, 8, 13]             512
           Conv2d-55            [-1, 256, 4, 7]         590,080
             ReLU-56            [-1, 256, 4, 7]               0
      BatchNorm2d-57            [-1, 256, 4, 7]             512
             View-58                 [-1, 7168]               0
           Linear-59                    [-1, 4]          28,676
          Sigmoid-60                    [-1, 4]               0
  ConvTranspose2d-61          [-1, 512, 16, 26]       1,049,088
           Conv2d-62          [-1, 256, 17, 26]       2,359,552
      BatchNorm2d-63          [-1, 256, 17, 26]             512
             ReLU-64          [-1, 256, 17, 26]               0
           Conv2d-65          [-1, 256, 17, 26]         590,080
      BatchNorm2d-66          [-1, 256, 17, 26]             512
             ReLU-67          [-1, 256, 17, 26]               0
      double_conv-68          [-1, 256, 17, 26]               0
               up-69          [-1, 256, 17, 26]               0
  ConvTranspose2d-70          [-1, 256, 34, 52]         262,400
           Conv2d-71          [-1, 128, 35, 52]         589,952
      BatchNorm2d-72          [-1, 128, 35, 52]             256
             ReLU-73          [-1, 128, 35, 52]               0
           Conv2d-74          [-1, 128, 35, 52]         147,584
      BatchNorm2d-75          [-1, 128, 35, 52]             256
             ReLU-76          [-1, 128, 35, 52]               0
      double_conv-77          [-1, 128, 35, 52]               0
               up-78          [-1, 128, 35, 52]               0
  ConvTranspose2d-79         [-1, 128, 70, 104]          65,664
           Conv2d-80          [-1, 64, 70, 105]         147,520
      BatchNorm2d-81          [-1, 64, 70, 105]             128
             ReLU-82          [-1, 64, 70, 105]               0
           Conv2d-83          [-1, 64, 70, 105]          36,928
      BatchNorm2d-84          [-1, 64, 70, 105]             128
             ReLU-85          [-1, 64, 70, 105]               0
      double_conv-86          [-1, 64, 70, 105]               0
               up-87          [-1, 64, 70, 105]               0
  ConvTranspose2d-88         [-1, 64, 140, 210]          16,448
           Conv2d-89         [-1, 64, 140, 210]          73,792
      BatchNorm2d-90         [-1, 64, 140, 210]             128
             ReLU-91         [-1, 64, 140, 210]               0
           Conv2d-92         [-1, 64, 140, 210]          36,928
      BatchNorm2d-93         [-1, 64, 140, 210]             128
             ReLU-94         [-1, 64, 140, 210]               0
      double_conv-95         [-1, 64, 140, 210]               0
               up-96         [-1, 64, 140, 210]               0
           Conv2d-97          [-1, 4, 140, 210]             260
          outconv-98          [-1, 4, 140, 210]               0
================================================================
Total params: 17,769,992
Trainable params: 17,769,992
Non-trainable params: 0
----------------------------------------------------------------
Input size (MB): 0.34
Forward/backward pass size (MB): 419.87
Params size (MB): 67.79
Estimated Total Size (MB): 488.00
----------------------------------------------------------------
Learning rate: 0.0004
…
